camera_params.npz (npz, 3002 bytes, 4 tensors)

cam_Matrix f8 [3, 3]
6881.1749865051415 0.0 2511.5679527671227 0.0 6886.989152400872 2549.1281391498246 0.0 0.0
1.0
00000000: d364 eacb 2ce1 ba40 0000 0000 0000 0000
00000010: ee80 b4ca 229f a340 0000 0000 0000 0000
00000020: 817c 1739 fde6 ba40 ab63 749b 41ea a340
00000030: 0000 0000 0000 0000 0000 0000 0000 0000
00000040: 0000 0000 0000 f03f

cam_DistCoeffs f8 [1, 5]
-0.6124384489284648 5.7172533132039955 0.005381172056018933 -0.03294961485846127 -18.41969555236823
00000000: 3dbe 9e84 1899 e3bf 9ea2 0ca7 77de 1640
00000010: 647f ea5f 910a 763f f13c 779c c5de a0bf
00000020: bdb2 ef2a 716b 32c0

rvecs f8 [39, 3, 1]
0.5232737331726434 -0.8663111353362869 -0.33906642508972573 0.6673037033728315 -0.046894326633895075 -0.10288934189720174 -0.20165581034115412 -0.8160358287547134
0.08963797955163938 0.17233072759819115 0.3572890280547734 0.027124529996764877 0.5400222611951944 0.6571186452833493 0.14373503954667988 -0.19352846079711805
-0.736132996899388 0.07476588538598058 -0.17392758707539013 0.8463221506300999 -0.06518638033115513 -0.2347999334100529 0.18693097945832818 0.009647295091185231
0.5841938738565224 0.6988906076804786 0.14033059543904597 0.6049083876225089 0.20189519994240007 -0.0009017931309611907 0.6185606169806043 0.19996265480467684
-0.007994383492793003 0.5232387329919421 -0.862637058193745 -0.33950968518829805 0.6124060856751771 0.6235597826406558 0.10618939540080155 0.5689021230064479
-0.34553219234200516 -0.1304505837906739 0.18172817892852466 0.488275169057515 0.03731010385232469 0.5889299484058982 0.3436683884680316 0.04061571841018479
-0.17434447478588053 0.8441673626098836 -0.06385926615797544 0.5563225174762395 -0.1602201781158873 -0.08801715850466214 0.18187282280867387 -0.7722363259512152
-0.06830495163909277 -0.12439271416229172 -0.09405418632278073 0.018270816044760295 0.554676866033699 0.1503915956587686 -0.014830200751436337 -0.21339771834327628
0.1228502659006191 0.008510675925136412 0.5815626012639322 0.4818506710406248 0.07571697306628253 0.15408941723912528 -0.8390564528728289 -0.07612112877652642
0.5384584481301404 0.1365709973802009 -0.01759120879504726 0.18312041199902443 -0.7774982979701448 -0.0682568902020351 -0.1754521823291543 0.8407912253803325
-0.06317912509764764 -0.19795521573955388 0.4411688209370645 -0.037648234369118176 0.10119507395091588 0.1225731591335048 0.023371496429805627 -0.04315863008837298
0.3187419787897543 -0.025786176718179933 0.6231016493616975 -0.9344089486654276 -0.33174265048079954 0.01831731115976386 -0.1567093138324927 0.02443700696227098
-0.20106312166909304 -0.8199817350188667 0.08788170119236026 -0.04249015367261558 0.29322433474410897 -0.030013557113424166 0.2496097125996761 -0.0734231532568185
-0.01735368566520922 0.15014260907609206 -0.8501665504789164 -0.07683284000588778 0.17551363834402983 0.5054485383474283 0.039277112822481954 -0.20418779250145502
-0.8084650800314803 0.09071866992450997 0.5294568245956665 -0.6768106954036263 -0.2807847632902315
00000000: 7aa2 5a8e a8be e03f 6ac2 4d21 d2b8 ebbf
00000010: fca5 bba9 43b3 d5bf 488d cf4b 8d5a e53f
00000020: 0663 857e 8802 a8bf 9531 8eb6 f456 babf
00000030: 6958 3b8b dbcf c9bf 3ab4 9b2b f71c eabf
00000040: f45f a7be 83f2 b63f a1a7 90eb ee0e c63f
00000050: 91c0 adcc d2dd d63f 899b 0565 88c6 9b3f
00000060: 2440 dec3 dc47 e13f 92ae 62ae 1d07 e53f
00000070: 7835 12e7 e865 c23f f402 fc64 8ac5 c8bf
00000080: 150f 66c9 668e e7bf 76da 9668 db23 b33f
00000090: 0435 2e59 4243 c6bf f5c5 da30 1215 eb3f
000000a0: dbbb aafb 0db0 b0bf 1cb1 8c99 ec0d cebf
000000b0: 85fe b0b5 5aed c73f 83c1 4a07 f6c1 833f
000000c0: 1298 d759 b7b1 e23f de03 efd5 4f5d e63f
000000d0: fafa 045b 5af6 c13f c545 bdd5 685b e33f
000000e0: 266a 7cb0 b3d7 c93f bb90 ab00 ca8c 4dbf
000000f0: 13cf 90a2 3fcb e33f ae59 6753 6098 c93f
00000100: b5cf 39fd 5b5f 80bf 826d c627 5fbe e03f
00000110: 2650 2808 b99a ebbf 96c6 a3d4 86ba d5bf
00000120: 8f14 bba5 d498 e33f 0a5c 31a5 33f4 e33f
00000130: 42af 6d6c 3a2f bb3f 5601 9e39 7234 e23f
00000140: f4bd 740e 331d d6bf b501 90cf 9ab2 c0bf
00000150: 343c a174 de42 c73f ea41 a37e e63f df3f
00000160: 7f52 b657 4f1a a33f c139 819e 83d8 e23f
00000170: f8e8 48b2 a9fe d53f a7f2 8c5c 95cb a43f
00000180: a3c9 b874 eb50 c6bf 1c52 d845 6b03 eb3f
00000190: b8ef b1b3 1459 b0bf c1d7 52e1 64cd e13f
000001a0: 4461 9544 1882 c4bf e5ad 43e1 4a88 b6bf
000001b0: 5f4a ffd0 9b47 c73f 1bcc 97f4 28b6 e8bf
000001c0: 1fdc 71ed 6e7c b1bf 5a0e 306f 33d8 bfbf
000001d0: 68e8 4e66 ef13 b8bf 56ae 88b5 95b5 923f
000001e0: e3cc eeb2 e9bf e13f 254d 7924 0840 c33f
000001f0: 2ba7 c3d9 4b5f 8ebf 69a6 a9ce 9d50 cbbf
00000200: a81a 5972 1d73 bf3f b35d 1f96 0b6e 813f
00000210: 3b2b 202c 299c e23f 7535 6b32 a4d6 de3f
00000220: 3e61 1203 3062 b33f acd2 d9b7 33b9 c33f
00000230: 25c5 12eb 8cd9 eabf 9f39 a19e ac7c b3bf
00000240: e829 1f36 0d3b e13f 8e3f aa8f 287b c13f
00000250: dc28 e309 6e03 92bf 9107 625a 7d70 c73f
00000260: 2647 4f1c 44e1 e8bf a2f7 2497 4879 b1bf
00000270: 3dca 8e94 3775 c6bf a0b6 f8ff c2e7 ea3f
00000280: fe93 15d4 812c b0bf e845 d6b4 9856 c9bf
00000290: f321 7c26 1c3c dc3f b729 bc1e a146 a3bf
000002a0: 29af 229d ebe7 b93f cc86 d85d f460 bf3f
000002b0: e062 4c93 b2ee 973f 3419 8a51 e318 a6bf
000002c0: a0ea b0c1 4466 d43f 3a1a c606 b167 9abf
000002d0: e5f2 c2de 72f0 e33f b972 7398 ade6 edbf
000002e0: 9637 a086 453b d5bf 7d01 87f1 c5c1 923f
000002f0: e2cf f100 0d0f c4bf 733d dcc6 0306 993f
00000300: e10d 00b6 6fbc c9bf da25 e755 4a3d eabf
00000310: 6fbc 8948 6a7f b63f 540f daf8 44c1 a5bf
00000320: eb81 0700 30c4 d23f 0b84 f4b8 dfbb 9ebf
00000330: af95 3008 36f3 cf3f ead9 011a dccb b2bf
00000340: 3eab 9621 2ac5 91bf 12e5 db7d df37 c33f
00000350: f8b8 4e7b 9034 ebbf d286 1527 51ab b3bf
00000360: 2644 581c 3b77 c63f 306c c069 a22c e03f
00000370: d593 1b36 211c a43f a8a1 8459 d322 cabf
00000380: f22e d628 f2de e9bf 225f 76b8 5639 b73f
00000390: 6309 4970 4ff1 e03f 53ee 4ae7 6ea8 e5bf
000003a0: 3efc e2a7 60f8 d1bf

tvecs f8 [39, 3, 1]
-0.2655038750371722 -0.3035484065680312 1.6312289950425423 -0.3632055437996127 -0.28037671335916003 1.4601736940620924 0.2165731476798615 -0.015529960777909215
1.1335316142391756 -0.13854617418256276 -0.3400574990284237 1.8796472369297146 -0.20087761054763 -0.5150856967085209 1.6650595546882203 0.3020242686471434
-0.004583393698334907 1.2428673264464911 0.013468300337098973 -0.10022285868179347 0.7872569295769012 0.06921680483809094 -0.17603917619463616 0.9483110366205335
-0.2963986596232411 -0.48177027375831893 1.8391408613149969 -0.3032231365971122 -0.40589636816710956 1.7099819489193993 -0.36399547372119717 -0.40574104153918406
1.666165829870086 -0.28566632981463697 -0.29561915393049926 1.636040108804504 -0.378342204861994 -0.4540302555699787 1.7718773961320873 -0.1722110646562582
-0.402941898681906 1.7213798546562433 -0.16621800727596808 -0.3567770487061558 1.8959879641237407 -0.2843846705834461 -0.4618881150078329 1.6475879135024523
0.009551187974030236 -0.09964148707617715 0.7860833905251055 -0.226063787799461 -0.4171696711039262 1.7020152742539265 -0.048563247436148815 -0.40786152945624277
1.585115860053219 -0.10216342189983788 -0.17705217896991882 0.9788968500237096 -0.2632864823217279 -0.4864365307996266 1.6821064643743957 0.023082795280896854
-0.17275976331668016 0.9730821560730744 -0.2977807919909122 -0.4880909719062881 1.6662850366991695 -0.1435660906018265 -0.3969776978387253 1.5069509122628584
-0.26833171990470356 -0.49815700155489834 1.66652863457485 -0.03854681199027016 -0.40921596428269535 1.5885087429142735 0.006528534180106199 -0.10057039250590122
0.7894473928697159 0.009748722123163744 -0.06959774662895406 0.8187733588921929 -0.458369423078175 -0.5787951179860014 1.8431498777115742 -0.1589954975395127
-0.21163667368928132 0.7951421302491002 -0.3549364168634239 -0.3924014776592139 1.5336021838790808 -0.2480311846944242 -0.27286893863511746 0.9899298209673043
0.210958768488753 -0.015674131758941983 1.1392184672847236 -0.19456217541088433 -0.2060926630677055 0.7940566637405454 -0.20052784898342876 -0.3326174116085615
1.8335336157436957 -0.16301483526136795 -0.39346266297683946 1.4971376002386882 -0.16365285641185945 -0.35660186135079963 1.9516992185864555 0.2254072517084686
-0.003054291874858588 1.1180321810666802 -0.28376063052482314 -0.31851008552786847 1.5887566789633534
00000000: 3ebd 0ff7 03fe d0bf 559b bd4b 566d d3bf
00000010: 26ea 1f93 8319 fa3f 4818 1677 c23e d7bf
00000020: f600 9c2b b1f1 d1bf 809e 6717 df5c f73f
00000030: 3d07 3d3d abb8 cb3f 2ebb 310d 2cce 8fbf
00000040: c43a c20b f222 f23f accd 8c8b e1bb c1bf
00000050: 5f8b 4587 80c3 d5bf 0514 2afb 0813 fe3f
00000060: 317d e687 5bb6 c9bf de03 c0ff 947b e0bf
00000070: a173 d47c 15a4 fa3f e604 1c99 5d54 d33f
00000080: 5ee9 9f60 09c6 72bf 96ac 85d9 c8e2 f33f
00000090: 6e28 d8ab 4495 8b3f 2f95 598c 34a8 b9bf
000000a0: 1aa1 c271 3531 e93f abfb 1c49 31b8 b13f
000000b0: 240e 49a4 7388 c6bf d712 1763 9058 ee3f
000000c0: 5c3e 6a15 32f8 d2bf 4c86 7efc 52d5 debf
000000d0: e95c c1f7 1e6d fd3f 0ecf c403 0268 d3bf
000000e0: 41f2 b5c2 34fa d9bf 21bf 3508 165c fb3f
000000f0: 8b92 e1ab b34b d7bf c991 0346 a9f7 d9bf
00000100: 5513 5080 9da8 fa3f 61d2 076e 5b48 d2bf
00000110: c7f8 8c99 6ceb d2bf 6e27 a464 382d fa3f
00000120: 000b 2539 c236 d8bf 3d53 c4ea d40e ddbf
00000130: 118b ce1c 9c59 fc3f c79e 5a1d 030b c6bf
00000140: 40b9 41d1 ccc9 d9bf 68de 3b9a c58a fb3f
00000150: 62d7 a0b4 a146 c5bf 7201 0a67 6fd5 d6bf
00000160: 6056 b879 f755 fe3f c4ef e8c2 5b33 d2bf
00000170: a4a9 172b 938f ddbf 5172 dc24 855c fa3f
00000180: 112a e4bf 928f 833f 1826 51c0 1a82 b9bf
00000190: f27d c75a 9827 e93f fc4b b47f a8ef ccbf
000001a0: 6a90 916b e8b2 dabf cc68 435e 743b fb3f
000001b0: a037 0d2f 48dd a8bf 1ee9 933e 671a dabf
000001c0: b4ca b472 a25c f93f ca41 e8cb 6127 babf
000001d0: 6640 2e53 a5a9 c6bf c64b a07c 1f53 ef3f
000001e0: ba3e c38b afd9 d0bf 4d4d d7af c621 dfbf
000001f0: 2f0d ce77 e8e9 fa3f 21ad 532b 04a3 973f
00000200: 7f42 c1ee fd1c c6bf f1f5 9430 7d23 ef3f
00000210: ad96 be2a d70e d3bf f9dc 73ea e13c dfbf
00000220: 55fe a67f 1aa9 fa3f 8686 f9a7 5f60 c2bf
00000230: 425b 5d25 1568 d9bf 9e8a 4d8f 781c f83f
00000240: ad16 5ece 582c d1bf cfe8 7ce7 cde1 dfbf
00000250: 548b f5ed 19aa fa3f a8fe b961 68bc a3bf
00000260: 1419 e627 9830 dabf 49a1 c324 886a f93f
00000270: d3c1 b50c aabd 7a3f 143c c232 fbbe b9bf
00000280: 6c36 c92d 2743 e93f 6001 9355 23f7 833f
00000290: fb8a a56d 28d1 b1bf b3e5 e82f 6433 ea3f
000002a0: 89db 66b4 ec55 ddbf e4b2 da56 7d85 e2bf
000002b0: 9d5c e6b9 8a7d fd3f c05c 12e7 f659 c4bf
000002c0: 9599 1018 e916 cbbf dcee a2e8 cd71 e93f
000002d0: fc9e a53b 47b7 d6bf 8fb2 5c16 1b1d d9bf
000002e0: 775b 8d71 a289 f83f bc49 5361 7cbf cfbf
000002f0: 470d e247 af76 d1bf 7b78 cc4d 81ad ef3f
00000300: 3658 bb69 b200 cb3f cbff 302d e10c 90bf
00000310: 4dcb bf24 3d3a f23f 9ed4 36d2 69e7 c8bf
00000320: bd21 e98f 3e61 cabf e7f7 3d85 e968 e93f
00000330: 4718 a984 e5aa c9bf a217 3c8a 9a49 d5bf
00000340: dac5 3b58 2756 fd3f 7cee 1a8d abdd c4bf
00000350: a5af 6b05 7e2e d9bf 8331 6a8e 46f4 f73f
00000360: 3ccc 17a9 93f2 c4bf 3a71 0c9d 90d2 d6bf
00000370: 4152 b7f5 283a ff3f 163f 2f13 25da cc3f
00000380: beeb e076 5005 69bf 3ce9 58b6 75e3 f13f
00000390: eac5 ff58 2229 d2bf 7574 3220 7862 d4bf
000003a0: d12f 971f 8c6b f93f
